…
as.layers.Conv2D(32, (3,3), activation=\u0026#39;relu\u0026#39;), keras.layers.MaxPooling2D(2, 2), keras.layers.Conv2D(16, (3,3), activation=\u0026#39;relu\u0026#39;), keras.layers.MaxPooling2D(2, 2), keras.layers.Flatten(), keras.layers.Dense(128, activation=\u0026#39;relu\u0026#39;), keras.layers.Dense(num_classes, activation=\u0026#39;softmax\u0026#39;) ]) model.summary() Model: \u0026quot;sequential\u0026quot; _________________________________________________________________ Layer (type) Output Shape Param # ================================================================= conv2d (Conv2D) (None, 148, 148, 64) 1792 _________________________________________________________________ max_pooling2d (MaxPooling2D) (None, 74, 74, 64) 0 _________________________________________________________________ conv2d_1 (Conv2D) (None, 72, 72, 64) 36928 _________________________________________________________________ max_pooling2d_1 (MaxPooling2 (None, 36, 36, 64) 0 _________________________________________________________________ conv2d_2 (Conv2D) (None, 34, 34, 32) 18464 _________________________________________________________________ max_pooling2d_2 (MaxPooling2 (None, 17, 17, 32) 0 _________________________________________________________________ conv2d_3 (Conv2D) (None, 15, 15, 16) 4624 _________________________________________________________________ max_pooling2d_3 (MaxPooling2 (None, 7, 7, 16) 0 _________________________________________________________________ flatten (Flatten) (None, 784) 0 _________________________________________________________________ dense (Dense) (None, 128) 100480 _________________________________________________________________ dense_1 (Dense) (None, 6) 774 ================================================================= Total params: 163,062 Trainable params: 163,062 Non-trainable params: 0 _________________________________________________________________  model.compile(loss = \u0026#39;sparse_categorical_crossentropy\u0026#39;, optimizer = \u0026#39;Adam\u0026#39;, metrics = [\u0026#39;acc\u0026#39;]) history = model.fit(train_generator,validatio
…
